model/deteksi_wajah3.tflite (tflite, 627988 bytes, 10 tensors)

arith.constant f4 [64]
0.0025382773 0.0062575247 0.011406337 -0.041449986 0.04343009 -0.03931299 0.06435895 -0.038527858
-0.034143772 0.13214049 0.031324387 -0.035868354 -0.027297463 -0.02953391 -0.004935425 -0.025940392
0.22866085 0.15941481 0.052458335 0.009974576 0.23864959 -0.028196966 0.055026103 -0.041726608
-0.044549186 -0.19877522 0.060195785 0.013096097 -0.008156198 -0.09780127 0.0015994548 -0.031470574
-0.06381456 0.06543379 0.050427947 0.06701662 0.0028117476 -0.018965088 -0.022237094 -0.03025801
-0.035699222 -0.04349299 -0.03980921 0.0061174342 0.066734225 0.09446496 -0.02676628 -0.026064351
0.13906609 0.050518524 0.069961004 0.16580601 0.14400968 -0.029382283 -0.028859321 -0.02654641
-0.010639315 0.051553253 0.058949236 0.10335191 -0.03626159 0.11779516 -0.054283082 0.03496249
00000000: 3a59 263b ec0b cd3b a5e1 3a3c 76c7 29bd
00000010: c0e3 313d a806 21bd a0ce 833d 63cf 1dbd
00000020: 57da 0bbd d64f 073e 004e 003d b2ea 12bd
00000030: ee9e dfbc 19f1 f1bc 58b9 a1bb f280 d4bc
00000040: 1226 6a3e a33d 233e 8dde 563d 676c 233c
00000050: 8f60 743e 53fd e6bc 0d63 613d 85e9 2abd
00000060: 3579 36bd bb8b 4bbe db8f 763d 0391 563c
00000070: 93a1 05bc 084c c8bd cca4 d13a 4ae7 00bd
00000080: 35b1 82bd 2702 863d 898d 4e3d 0240 893d
00000090: 4c45 383b ac5c 9bbc 912a b6bc a5df f7bc
000000a0: 5939 12bd b525 32bd fb0e 23bd c274 c83b
000000b0: f4ab 883d d876 c13d f544 dbbc e884 d5bc
000000c0: 5767 0e3e 83ec 4e3d b747 8f3d 0dc9 293e
000000d0: 4677 133e 1db3 f0bc 626a ecbc db77 d9bc
000000e0: 8550 2ebc 8129 533d c174 713d 2baa d33d
000000f0: 0887 14bd 973e f13d f057 5ebd d434 0f3d

arith.constant1 f4 [32]
-0.14221528 -0.028341347 -0.028789813 -0.076871835 -0.06441647 -0.06400887 -0.03764486 -0.08663296
0.044160604 0.010963137 -0.0012532724 -0.030867618 0.05111547 -0.019744366 -0.1491945 -0.013380733
-0.014733303 0.2375153 -0.022400314 0.16072613 -0.013460809 0.023967694 -0.04955891 0.0850684
0.040600065 -0.028206933 -0.13429861 0.04882021 -0.00052483083 -0.10418326 0.0642451 0.15941288
00000000: e2a0 11be 1d2c e8bc 9dd8 ebbc fb6e 9dbd
00000010: c8ec 83bd 1517 83bd 7f31 1abd 9f6c b1bd
00000020: c0e1 343d bb9e 333c d844 a4ba 16de fcbc
00000030: 745e 513d f0be a1bc 71c6 18be dd3a 5bbc
00000040: f463 71bc 3637 733e dd80 b7bc 6495 243e
00000050: ba8a 5cbc e657 c43c 49fe 4abd 5738 ae3d
00000060: 414c 263d 3a12 e7bc 9385 09be b3f7 473d
00000070: cd94 09ba 085e d5bd ef92 833d 213d 233e

arith.constant2 f4 [64, 3, 3, 32]
-0.12386084 -0.46349463 -0.11371028 -0.08021116 0.08599267 -0.21497029 0.024479758 0.13481991
-0.20393002 0.068948135 -0.11792958 -0.26124677 -0.10357372 0.013646766 -0.42635646 -0.028414173
0.0821676 0.037269287 0.07845753 -0.32957426 0.056291103 0.08805175 -0.070376955 -0.2129719
-0.26900807 -0.14052033 -0.06257027 -0.03795245 -0.017965298 0.027248822 -0.17908318 -0.060921896
0.12128493 -0.039553583 0.30075315 -0.12071856 -0.015611356 -0.07898335 0.07082844 0.10739853
0.0420245 0.13301525 -0.08352301 -0.10227507 -0.07083446 -0.031877846 0.030561188 0.019943865
-0.049217433 -0.020729087 -0.0075269155 -0.10331206 0.027460527 -0.1339357 0.041773714 -0.24214152
0.06294115 0.16417952 -0.0135889165 0.14877932 -0.00021668628 -0.04453332 -0.3136798 -0.005478837
0.037992176 -0.04514941 -0.08562112 0.13680659 0.12622833 -0.21410578 0.013663156 -0.08268435
0.011170056 0.2724366 0.19622017 0.02074071 -0.024649125 0.009282997 0.029621543 -0.062142484
0.0403779 0.17944093 -0.022082532 0.201282 -0.09567806 -0.09122376 0.07906871 0.0104252715
-0.071660705 0.037898686 0.070208736 -0.079826 -0.09461701 0.02255751 -0.024226137 0.10548076
-0.08448939 0.10308662 -0.030271504 -0.19435023 -0.11019136 0.038852114 -0.061163623 0.046873856
-0.19952556 -0.074812226 0.045018286 -0.041020434 0.090252645 0.054988492 -0.04810039 0.06853829
0.008766148 0.08081809 -0.08699464 0.072376356 -0.06971784 0.1010602 0.084240146 -0.048074078
-0.036544703 -0.12431574 -0.046874795 -0.021201558 -0.055787355 0.027909007 -0.047207326 -0.061368234
0.0689207 0.20095621 0.46238077 -0.15022635 -0.09490098 0.07770402 0.0019626443 -0.28293046
-0.00734644 0.1249082 0.11780389 0.26659858 -0.22530831 0.010130565 -0.11613131 0.04893394
0.002297755 -0.011176296 0.012117818 0.11079984 0.041681148 -0.12196385 0.0075506894 0.038433235
0.049350932 -0.05464089 -0.02649951 -0.16041721 0.052855738 0.09129018 -0.04301193 -0.38403124
-0.10048902 0.16241242 -0.07504792 0.18404163 0.011243902 0.036490772 -0.049428884 -0.07317606
-0.15614422 0.050673597 0.2089904 0.13176368 -0.2929169 0.042159997 -0.16098687 0.05939093
-0.02551499 0.082200825 0.020065615 0.025963767 -0.1372294 -0.1059952 -0.07713251 0.14279272
0.07846603 0.21819773 -0.14139488 -0.12786718 -0.06106296 -0.039580595 0.09686313 0.01686639
-0.029296475 -0.08231561 0.04355952 -0.07148351 -0.0025655362 0.088214315 0.0846848 -0.3127533
0.14001942 -0.17809959 -0.25381246 0.0642047 0.1308625 0.07118709 0.09501587 0.07024755
0.007961061 -0.061315432 0.0099042365 0.20780294 0.004114173 0.20650017 -0.0334059 0.15111104
-0.16123682 -0.14744745 -0.13705991 0.049491633 0.039229304 -0.07023375 0.07901073 -0.10680275
0.083108634 0.24618219 0.2709245 0.13958432 -0.11009533 0.30674475 0.06184204 0.08573138
-0.0018643105 -0.008848553 -0.18417917 0.4625616 -0.16126245 -0.005382693 0.0985652 -0.05637659
-0.060455073 -0.106339015 0.04339001 0.011103703 -0.21561731 -0.23281877 0.036438547 0.16132051
-0.09691227 0.13223065 0.20018062 -0.115280405 0.074375756 0.07908377 0.23035505 -0.047918566
00000000: c1aa fdbd 2b4f edbe efe0 e8bd c045 a4bd
00000010: ed1c b03d 2c21 5cbe c689 c83c 3b0e 0a3e
00000020: 08d3 50be ae34 8d3d 1085 f1bd 23c2 85be
00000030: 751e d4bd af96 5f3c 654b dabe d7c4 e8bc
00000040: 7d47 a83d aea7 183d 57ae a03d f5bd a8be
00000050: 8091 663d 7a54 b43d cb21 90bd 4e15 5abe
00000060: 6dbb 89be 90e4 0fbe d724 80bd 0774 1bbd
00000070: f62b 93bc ec38 df3c 9561 37be 3d89 79bd
00000080: 3c64 f83d f002 22bd 51fc 993e 4b3b f7bd
00000090: c6c6 7fbc 06c2 a1bd 800e 913d c3f3 db3d
000000a0: e221 2c3d 2635 083e 1d0e abbd 9875 d1bd
000000b0: a811 91bd 5892 02bd 755b fa3c 5161 a33c
000000c0: 3898 49bd 0cd0 a9bc 58a4 f6bb 4695 d3bd
000000d0: e6f4 e03c 7126 09be ea1a 2b3d f2f3 77be
000000e0: 4ae7 803d ad1e 283e 0ca4 5ebc 9b59 183e
000000f0: 4836 63b9 9268 36bd a49a a0be d187 b3bb
00000100: af9d 1b3d 96ee 38bd 205a afbd 0717 0c3e
00000110: 0042 013e 8c3e 5bbe 6edb 5f3c 6a56 a9bd
00000120: 9c02 373c cf7c 8b3e f1ed 483e 6ce8 a93c
00000130: f6ec c9bc b617 183c e1a8 f23c 1e89 7ebd
00000140: 4c63 253d 5dbf 373e 6de6 b4bc de1c 4e3e
00000150: dcf2 c3bd 86d3 babd c7ee a13d c2ce 2a3c
00000160: d9c2 92bd a73b 1b3d 99c9 8f3d d07b a3bd
00000170: 90c6 c1bd 87ca b83c e475 c6bc 4c06 d83d
00000180: c608 adbd 141f d33d f2fb f7bc bf03 47be
00000190: 02ac e1bd 6523 1f3d b586 7abd cdfe 3f3d
000001a0: 6e50 4cbe 2737 99bd 1865 383d 0b05 28bd
000001b0: 61d6 b83d 9d3b 613d ea04 45bd ce5d 8c3d
000001c0: e49f 0f3c f483 a53d 3f2a b2bd 0e3a 943d
000001d0: 3ac8 8ebd a6f8 ce3d 1986 ac3d 53e9 44bd
000001e0: e6af 15bd 4099 febd c9ff 3fbd e4ae adbc
000001f0: 4881 64bd 6ea1 e43c 785c 41bd 425d 7bbd
00000200: 4c26 8d3d 77c7 4d3e 2cbd ec3e f0d4 19be
00000210: 725b c2bd 4923 9f3d b59f 003b 43dc 90be
00000220: 68ba f0bb dfcf ff3d 2a43 f13d 9c7f 883e
00000230: 39b7 66be abfa 253c 41d6 edbd f46e 483d
00000240: ef95 163b c81c 37bc d089 463c 07eb e23d
00000250: dab9 2a3d 2fc8 f9bd c66b f73b 2b6c 1d3d
00000260: 3424 4a3d 20cf 5fbd 8015 d9bc 6944 24be
00000270: 427f 583d 59f6 ba3d 472d 30bd be9f c4be
00000280: 30cd cdbd 714f 263e b9b2 99bd 6975 3c3e
00000290: 5838 383c 5977 153d f175 4abd 55dd 95bd
000002a0: 45e4 1fbe 1e8f 4f3d 9401 563e 0fed 063e
000002b0: 34f9 95be f6af 2c3d bed9 24be e743 733d
000002c0: d004 d1bc e858 a83d a560 a43c f7b1 d43c
000002d0: dd85 0cbe 0314 d9bd a6f7 9dbd 4138 123e
000002e0: ccb2 a03d 3a6f 5f3e d2c9 10be 9def 02be
000002f0: 281d 7abd 431f 22bd 2d60 c63d 622b 8a3c
00000300: 29ff efbc 1695 a8bd 786b 323d f265 92bd
00000310: 8e22 28bb b5a9 b43d 396f ad3d 3321 a0be
00000320: 4061 0f3e bd5f 36be b5f3 81be c17d 833d
00000330: d200 063e 89ca 913d ae97 c23d f3dd 8f3d
00000340: 1c6f 023c e425 7bbd 6145 223c 4bca 543e
00000350: 2fd0 863b c874 533e a0d4 08bd dabc 1a3e
00000360: 441b 25be 77fc 16be 6f59 0cbe bdb7 4a3d
00000370: e8ae 203d b6d6 8fbd 61d0 a13d 66bb dabd
00000380: dc34 aa3d 2f17 7c3e 9eb6 8a3e 31ef 0e3e
00000390: a979 e1bd a60d 9d3e 144e 7d3d ef93 af3d
000003a0: e15b f4ba 85f9 10bc 7799 3cbe e0d4 ec3e
000003b0: fc21 25be 4d61 b0bb 8ddc c93d 24eb 66bd
000003c0: bd9f 77bd 45c8 d9bd b9b9 313d 4eec 353c
000003d0: c9ca 5cbe 0b68 6ebe 9640 153d 3431 253e
000003e0: f179 c6bd 7967 073e 26fc 4c3e 2218 ecbd
000003f0: 5152 983d acf6 a13d 32e2 6b3e 4246 44bd

arith.constant3 f4 [32, 3, 3, 18]
-0.16492686 0.117548704 0.01119986 -0.07460966 -0.20725682 -0.05090137 -0.20030124 -0.12036037
-0.005566015 0.04204744 -0.08034634 0.16489604 0.22532709 -0.13116668 0.13538143 -0.0035416367
-0.03442777 0.16020843 -0.14421967 0.060112484 0.063603155 -0.114204496 0.20195323 -0.04464586
0.09409618 0.0639239 -0.08025084 0.13131338 -0.12927261 -0.13120985 -0.22258554 0.17108351
-0.004996084 -0.19615583 -0.15688743 -0.10430142 0.19353843 0.16358009 0.018549029 -0.05408137
-0.23567036 0.011550352 0.20936696 -0.1774918 0.027858952 -0.07192965 0.15172395 0.31849083
0.19444698 -0.17997584 0.056115933 -0.05416326 -0.14140385 -0.119110085 0.15299472 -0.08830636
-0.29382017 -0.024278346 0.06289507 -0.13969107 -0.18930739 0.013529613 -0.105437264 0.06693164
-0.102441855 0.10411118 -0.26367357 -0.16615999 -0.13842583 -0.13737471 -0.06711777 0.1550778
-0.09943037 0.27678794 0.147399 -0.05234073 0.016965745 0.18282846 0.21081081 0.31807414
0.3299488 0.3113118 0.23639977 -0.064646 0.22379628 0.28911412 0.17414244 0.016457306
0.21434824 -0.085681215 0.101446755 -0.2667195 -0.005060006 -0.12707937 -0.23796093 0.35617137
0.33975467 0.4899183 0.10761688 0.061741136 -0.07143134 0.012722055 -0.11228955 0.41325387
-0.15127243 0.22293918 0.13388528 0.065972514 -0.023271425 -0.09268708 -0.11940629 -0.10012044
0.015742825 -0.008245384 0.17922607 -0.12021493 -0.11851981 -0.06902306 -0.121394195 -0.038205422
-0.20550737 -0.29157713 0.05382659 0.08549367 0.05234987 -0.06478917 -0.13934144 0.29917923
0.12166566 -0.12962592 0.39385158 0.25934094 -0.0086662 0.06114052 0.023895942 0.25092497
0.39192268 0.21711107 -0.046489537 -0.06269761 0.33466688 -0.021086074 0.29348755 -0.09439641
-0.04459184 0.13132247 -0.065562986 -0.16865095 -0.0046868203 0.3506046 -0.16710971 -0.18002367
0.070688844 -0.123325415 0.41364348 0.054852016 -0.04499966 -0.017727029 0.0016610171 0.056131206
0.22758295 -0.19066884 0.0027274247 0.016446654 -0.11136035 -0.05854902 -0.32930115 -0.24266136
-0.03361427 -0.22447619 -0.3077581 -0.123571664 0.12154373 0.31055528 -0.011668644 -0.47045243
-0.47917068 -0.083331995 -0.05020134 -0.23219196 0.09336576 0.22374709 0.19077632 -0.033654727
-0.075999364 0.028403413 0.45033935 0.37421262 0.16429718 0.1061164 -0.12256882 -0.17923537
0.43413326 0.16058776 0.41933835 -0.16613623 -0.13440418 -0.44495335 0.16950363 0.3487985
-0.025219608 0.06241147 -0.18777575 0.32838377 0.16969697 0.20432669 0.023614215 0.16348507
0.13988183 0.08349594 0.22346903 0.26945072 0.27284762 0.010349501 -0.014506139 0.12046168
0.24989627 -0.122956276 0.12411625 -0.051600277 -0.36041307 -0.15906125 0.25287595 -0.21808007
-0.39805636 -0.16571565 0.07751874 0.15486474 -0.3416642 -0.3800839 -0.36008143 -0.1041989
0.07004087 -0.27286482 0.088186 0.4831117 0.28963032 0.015437905 -0.26304442 0.13730739
0.15288655 0.06962819 0.016250135 0.18447362 0.3989965 0.055318747 0.22222112 -0.22108723
-0.022439262 -0.0097299805 0.106897235 -0.16740222 0.05458218 0.13462937 0.3077348 0.0209685
00000000: 96e2 28be 60bd f03d 9e7f 373c f3cc 98bd
00000010: 223b 54be f47d 50bd c51b 4dbe 7f7f f6bd
00000020: 1e63 b6bb f039 2c3d 9f8c a4bd 82da 283e
00000030: 25bc 663e 8f50 06be 6ea1 0a3e ce1a 68bb
00000040: 2204 0dbd ae0d 243e 52ae 13be 8238 763d
00000050: 5f42 823d 0ce4 e9bd d4cc 4e3e 94de 36bd
00000060: 7fb5 c03d 89ea 823d 8d5a a4bd 0477 063e
00000070: 0a60 04be e05b 06be 77ed 63be 8430 2f3e
00000080: 31b6 a3bb 13dd 48be 19a7 20be fc9b d5bd
00000090: f02e 463e 8a81 273e 22f4 973c 6d84 5dbd
000000a0: 9253 71be b03d 3d3c 4b64 563e 69c0 35be
000000b0: 7538 e43c da4f 93bd 865d 1b3e 3b11 a33e
000000c0: 1c1d 473e 964b 38be d2d9 653d 4bda 5dbd
000000d0: 2ccc 10be fdef f3bd a6aa 1c3e f7d9 b4bd
000000e0: 996f 96be 62e3 c6bc 21cf 803d 2d0b 0fbe
000000f0: ccd9 41be 4fab 5d3c 7eef d7bd 7513 893d
00000100: 09cd d1bd 3e38 d53d 3900 87be d825 2abe
00000110: 80bf 0dbe f5ab 0cbe 0b75 89bd b7cc 1e3e
00000120: 26a2 cbbd 26b7 8d3e c3ef 163e 3c63 56bd
00000130: bffb 8a3c 6237 3b3e cade 573e 9dda a23e
00000140: 0def a83e 4364 9f3e c812 723e 1f65 84bd
00000150: da2a 653e c406 943e 6552 323e 79d1 863c
00000160: 1b7e 5b3e a279 afbd 51c3 cf3d 758f 88be
00000170: 68ce a5bb 1821 02be 08ac 73be 185c b63e
00000180: 53f4 ad3e 92d6 fa3e 3d66 dc3d 46e4 7c3d
00000190: 984a 92bd 2b70 503c 10f8 e5bd 0396 d33e
000001a0: 29e7 1abe 2b4a 643e 3919 093e 991c 873d
000001b0: b7a3 bebc b9d2 bdbd 498b f4bd f20b cdbd
000001c0: 19f7 803c a617 07bc 0a87 373e 3f33 f6bd
000001d0: 84ba f2bd f65b 8dbd 859d f8bd 4a7d 1cbd
000001e0: 8670 52be 9949 95be 4579 5c3d 4e17 af3d
000001f0: d16c 563d 2fb0 84bd 86af 0ebe 052e 993e
00000200: d82b f93d a8bc 04be eaa6 c93e 56c8 843e
00000210: adfc 0dbc 7b6e 7a3d 6cc1 c33c 3d79 803e
00000220: 17aa c83e 5d52 5e3e d06b 3ebd 9b67 80bd
00000230: 7559 ab3e b4bc acbc 0044 963e e852 c1bd
00000240: efa5 36bd 6679 063e e345 86bd d6b2 2cbe
00000250: e693 99bb 7282 b33e cf1e 2bbe 2058 38be
00000260: 50c5 903d 0992 fcbd 14c9 d33e 82ac 603d
00000270: 9051 38bd 4638 91bc 7cb6 d93a d6e9 653d
00000280: 810b 693e b13e 43be 98be 323b 22bb 863c
00000290: e510 e4bd 19d1 6fbd 299a a8be 387c 78be
000002a0: 1eaf 09bd 16dd 65be 7892 9dbe 2413 fdbd
000002b0: ebeb f83d 1a01 9f3e d72d 3fbc 24df f0be
000002c0: dc55 f5be f7a9 aabd ec9f 4dbd bbc3 6dbe
000002d0: 8c36 bf3d f51d 653e de5a 433e 8ad9 09bd
000002e0: 8ea5 9bbd 46ae e83c e192 e63e cc98 bf3e
000002f0: 853d 283e 8e53 d93d 5d05 fbbd 7a89 37be
00000300: b746 de3e 1e71 243e 84b3 d63e 9e1f 2abe
00000310: 40a1 09be edd0 e3be 5c92 2d3e b895 b23e
00000320: 5a99 cebc 2ba3 7f3d 4948 40be eb21 a83e
00000330: 0bc5 2d3e 043b 513e 9972 c13c a168 273e
00000340: 2f3d 0f3e ebff aa3d 11d5 643e 72f5 893e
00000350: afb2 8b3e f490 293c 28ab 6dbc 9db4 f63d
00000360: cfe4 7f3e 80d0 fbbd a930 fe3d d05a 53bd
00000370: 1088 b8be f4e0 22be f578 813e 6250 5fbe
00000380: 0bce cbbe 5db1 29be 25c2 9e3d dd94 1e3e
00000390: 9cee aebe 5b9a c2be 985c b8be 3c66 d5bd
000003a0: 9671 8f3d f0b4 8bbe dd9a b43d 6b5a f73e
000003b0: 6d4a 943e 44ef 7c3c c2ad 86be 4f9a 0c3e
000003c0: 4b8e 1c3e 3999 8e3d 011f 853c a7e6 3c3e
000003d0: 4549 cc3e e995 623d ef8d 633e b164 62be
000003e0: 8bd2 b7bc 7f6a 1fbc f0ec da3d 7d6b 2bbe
000003f0: 9091 5f3d 48dc 093e 6a8f 9d3e 22c6 ab3c

arith.constant4 f4 [7, 128]
-0.006154124 0.14631133 -0.23388274 -0.06905126 0.294636 -0.022676986 0.20353803 -0.12961441
-0.075817876 -0.00976928 -0.39838383 -0.16775928 -0.053936135 -0.103528015 -0.004330105 0.0047149644
-0.1821281 -0.09287074 0.16553535 0.06868865 -0.21275018 0.11230603 0.15669373 0.007181526
-0.19684394 0.07977028 -0.11658624 0.17141585 0.11237545 -0.24550717 -0.026857214 0.17574437
-0.12965421 -0.19594292 0.034656793 -0.08707305 0.24822779 0.21592599 0.4692459 0.26367164
-0.26914123 -0.12431115 -0.052630067 -0.6270333 -0.101827525 -0.12279546 -0.41389194 -0.31662977
-0.047556296 0.03576513 -0.12968065 -0.11283534 -0.10678166 -0.12048732 -0.12615572 -0.286551
-0.13338813 -0.17304811 0.04417077 -0.071743906 0.07378483 -0.19942869 -0.12279337 -0.4061101
-0.14346357 0.16386099 0.18501465 0.0051437872 -0.015731215 -0.13693003 0.044586457 -0.0613524
0.33929273 -0.46141014 -0.09320068 -0.10676738 0.078201376 -0.21949494 0.16105147 -0.16897103
-0.09481105 -0.079733945 0.041061804 -0.05264192 -0.05669215 0.19641866 0.22121869 -0.52842677
-0.7163982 0.19094688 -0.4029273 0.21712382 -0.13304846 -0.12230664 -0.112741075 -0.21842101
-0.06827448 -0.09737341 -0.5174182 0.027962713 0.09264288 0.019517386 0.2207317 0.07718243
-0.09813841 0.25193968 0.026292365 -0.10715203 -0.34910324 0.052864276 -0.3665206 0.4880199
-0.078795865 -0.040328305 0.16022576 0.18160215 0.06748367 -0.09865661 -0.25002277 -0.15277642
-0.22803688 0.16304527 0.052567415 -0.13287471 0.10955605 0.13105635 -0.033694353 0.5733221
-0.18139139 0.103697024 0.00010139245 0.0025223712 0.68904394 0.12223879 -0.55522233 -0.15843824
-0.015749775 -0.7618927 -0.27179104 0.21816418 -0.09350675 0.16285326 0.042331528 0.1546358
0.043945428 -0.120493546 0.4347583 -0.072658025 0.117398724 0.080040276 0.112668216 0.039883617
0.16759665 0.13936374 0.023472445 -0.37787464 -0.12012824 0.045485623 0.020184383 0.07033119
0.14999644 -0.045139186 0.16477881 0.042198267 0.33854213 0.01694725 0.03701039 -0.021062398
-0.754051 0.47313508 -0.56297445 -0.26724613 0.021782957 0.15997382 0.48343316 -0.16677687
-0.23326455 0.19024806 -0.20498745 -0.17099045 0.19351621 -0.5666592 -0.04586762 0.07646316
0.18141705 -0.55134207 -0.13811782 -0.2094655 -0.6149485 -0.2679231 0.12768385 -0.1850593
-0.04962964 -0.021120062 0.030517736 -0.6389658 0.06973439 0.18137617 -0.53362334 -0.21037076
-0.4398253 -0.22545983 0.19743665 0.032245412 0.13080008 -0.27578658 -0.5072842 0.13320288
0.16529985 0.07555753 0.035740048 -0.64708155 0.05432266 -0.3523049 -0.21372384 -0.47190672
-0.16404669 0.19925778 -0.70317 -0.10504164 0.014107312 -0.089012556 0.0661007 0.35581347
0.10372187 -0.08673196 0.0005674514 0.03339633 -0.07699028 0.10337581 -0.7409355 0.17803721
0.11283386 0.22107632 -0.026300216 -0.1015701 -0.028968733 0.08698268 -0.603197 0.032316603
-0.12152125 -0.19508266 -0.45217422 0.21275094 0.17905943 -0.18278585 0.15378176 -0.21534681
0.23460358 -0.19021146 -0.062015973 -0.013431213 -0.02809111 -0.23078066 0.18577845 -0.37707064
00000000: 89a8 c9bb a3d2 153e f57e 6fbe bf6a 8dbd
00000010: 88da 963e 16c5 b9bc 466c 503e a4b9 04be
00000020: 6746 9bbd 550f 20bc f7f8 cbbe 17c9 2bbe
00000030: 23ec 5cbd 7f06 d4bd 8ee3 8dbb fd7f 9a3b
00000040: ca7f 3abe 0433 bebd 1982 293e a3ac 8c3d
00000050: 2fdb 59be b400 e63d 5274 203e 0253 eb3b
00000060: 7591 49be 9a5e a33d c4c4 eebd a387 2f3e
00000070: 1a25 e63d 3b66 7bbe a903 dcbc 55f6 333e
00000080: 13c4 04be 43a5 48be 48f4 0d3d 5b53 b2bd
00000090: 6d2f 7e3e b41b 5d3e 0041 f03e f8ff 863e
000000a0: e1cc 89be d896 febd a092 57bd 4185 20bf
000000b0: f38a d0bd 307c fbbd a5e9 d3be 4c1d a2be
000000c0: 64ca 42bd 757e 123d 01cb 04be 3716 e7bd
000000d0: 58b0 dabd 0ec2 f6bd f72e 01be d0b6 92be
000000e0: e696 08be 8633 31be 69ec 343d 78ee 92bd
000000f0: 801c 973d 0937 4cbe 177b fbbd aaed cfbe
00000100: 1de8 12be 2dcb 273e 7b74 3d3e 378d a83b
00000110: c0de 80bc 6337 0cbe 4aa0 363d a74c 7bbd
00000120: c7b7 ad3e f33d ecbe 00e0 bebd dba8 dabd
00000130: 0b28 a03d 48c3 60be adea 243e be06 2dbe
00000140: 4c2c c2bd 8d4b a3bd 6c30 283d 0e9f 57bd
00000150: 0736 68bd f921 493e 2787 623e fa46 07bf
00000160: df65 37bf 9487 433e 7d4c cebe b555 5e3e
00000170: db3d 08be e77b fabd cbe4 e6bd c2a9 5fbe
00000180: 7ed3 8bbd b66b c7bd 8575 04bf 0f12 e53c
00000190: 8dbb bd3d ede2 9f3c 7e07 623e d211 9e3d
000001a0: cafc c8bd 3dfe 803e 1663 d73c 8672 dbbd
000001b0: a9bd b2be 3688 583d 97a8 bbbe bfdd f93e
000001c0: ba5f a1bd 4b2f 25bd 3912 243e eaf5 393e
000001d0: e134 8a3d 7a0c cabd fc02 80be 6c71 1cbe
000001e0: 8082 69be 57f5 263e ee50 573d 4f10 08be
000001f0: ec5e e03d a333 063e 1703 0abd 3dc5 123f
00000200: aabe 39be 1b5f d43d a8a2 d438 5e4e 253b
00000210: 2f65 303f 5558 fa3d 0d23 0ebf a23d 22be
00000220: ac05 81bc 660b 43bf 3228 8bbe 6e66 5f3e
00000230: 7880 bfbd 01c3 263e d363 2d3d d958 1e3e
00000240: 1f00 343d 52c5 f6bd a498 de3e bbcd 94bd
00000250: be6e f03d 28ec a33d 98be e63d 015d 233d
00000260: 759e 2b3e 5eb5 0e3e 4949 c03c c978 c1be
00000270: cb05 f6bd 224f 3a3d b859 a53c cd09 903d
00000280: ab98 193e dee3 38bd c7bb 283e 17d8 2c3d
00000290: 6555 ad3e f6d4 8a3c 3598 173d 0d8b acbc
000002a0: 7d09 41bf c33e f23e 181f 10bf 7cd4 88be
000002b0: 2c72 b23c 2dd0 233e 8d84 f73e 8ec7 2abe
000002c0: e7dc 6ebe 63d0 423e 3be8 51be 1f18 2fbe
000002d0: 1d29 463e 9410 11bf afdf 3bbd b898 9c3d
000002e0: 64c5 393e c124 0dbf c26e 0dbe 207e 56be
000002f0: 446d 1dbf 372d 89be 8ebf 023e 2f80 3dbe
00000300: 7348 4bbd fb03 adbc 5500 fa3c 4393 23bf
00000310: e7d0 8e3d adba 393e 8a9b 08bf 6f6b 57be
00000320: c830 e1be f1de 66be d52c 4a3e c413 043d
00000330: 75f0 053e e633 8dbe 61dd 01bf 5666 083e
00000340: 5d44 293e e8bd 9a3d 2864 123d 23a7 25bf
00000350: 7081 5e3d 4f61 b4be 6cda 5abe c29d f1be
00000360: dbfb 27be 3b0a 4c3e f302 34bf 1220 d7bd
00000370: 5b22 673c 374c b6bd ce5f 873d 2f2d b63e
00000380: 226c d43d 87a0 b1bd 05c1 143a 97ca 083d
00000390: 14ad 9dbd b2b6 d33d f3ad 3dbf 634f 363e
000003a0: 7015 e73d d561 623e 8d73 d7bc fc03 d0bd
000003b0: d64f edbc fa23 b23d 1e6b 1abf 6a5e 043d
000003c0: 22e0 f8bd c0c3 47be 6183 e7be 62db 593e
000003d0: 5b5b 373e 372c 3bbe f778 1d3e e083 5cbe
000003e0: ec3b 703e cbc6 42be 7604 7ebd 970e 5cbc
000003f0: 541f e6bc c451 6cbe b53c 3e3e 670f c1be

arith.constant5 f4 [128, 1024]
-0.013436085 -0.0090844035 -0.023548186 0.027885705 0.029888254 0.049928285 -0.06915292 0.03455306
-0.027671676 -0.04306562 0.03718817 -0.034765884 0.04445643 0.053072408 0.032235533 0.01147314
-0.063852444 0.017171878 0.032973923 0.059971496 -0.0069644363 -0.06302908 -0.057846177 0.051268123
0.0030868426 -0.07199547 0.040178426 0.003642851 -0.027050234 -0.001333171 0.026502125 0.03334663
-0.0045184996 -0.062275257 0.06754275 -0.08264107 0.027701527 0.060447022 0.016445918 -0.022957318
-0.082779124 0.023196254 0.022530975 -0.0029071001 -0.06819923 -0.12072121 -0.0057587833 -0.015202422
-0.08808379 -0.03476633 -0.07300792 0.04162338 -0.06486714 -0.036720734 -0.047130316 -0.016702939
0.0067085773 -0.09456 -0.051372536 -0.075909644 -0.07045907 -0.0261523 -0.025647826 -0.015851839
-0.0026832453 0.02828727 -0.04467383 0.012700447 0.03977085 -0.07029702 -0.105996944 -0.06769872
0.053616986 -0.014877871 -0.041347913 0.060708657 0.055375345 -0.048328813 -0.034675688 0.04716526
0.041513264 -0.011452248 0.0126668345 0.071350396 0.0040753228 0.030605013 0.008628144 0.018877499
0.021272764 -0.012325418 -0.031894207 -0.027807493 -0.062381364 -0.0024200976 -0.048418913 -0.06407083
0.059269026 0.010844126 -0.03466954 -0.044083174 -0.014016769 0.053199694 0.065307826 -0.015866604
0.038809977 -0.008718962 -0.07007743 -0.017233575 0.04190967 -0.0013173212 0.05687658 -0.032750465
0.090472646 0.028234959 0.0058755893 -0.06450042 0.06723957 -0.04990114 0.042863652 -0.04585037
-0.006892808 -0.07275324 -0.046314146 -0.021013258 -0.0038227588 -0.104387395 0.05898708 0.007844418
-0.018206278 -0.06431274 -0.035610005 -0.07603822 -0.013121102 0.06704481 -0.0012809185 -0.07296748
0.003291631 -0.07122291 -0.007809307 -0.027367175 -0.04177382 0.04007768 0.042451367 -0.025976919
0.05428447 -0.051572915 -0.034478307 -0.04352056 -0.0738251 -0.07119394 -0.056917746 -0.0018142387
0.013766706 0.011977016 0.038370196 -0.029502477 -0.050242573 -0.094404735 0.042866837 -0.059644684
-0.051185917 -0.09649009 -0.04577492 -0.06557043 0.011809671 0.047307435 0.025974505 -0.0544529
-0.03786989 0.023733245 0.025277235 -0.03386206 -0.030023491 -0.0576704 0.048487455 0.06402698
-0.007421148 -0.050739527 0.05153834 -0.030823031 0.023183972 -0.02914587 -0.04680594 0.040625513
0.067155406 -0.0522291 -0.082425386 0.017349958 -0.023387857 -0.11631407 0.05979882 0.042421296
-0.030746095 0.022112852 -0.02681296 0.022821095 -0.053198464 0.039527677 -0.08316569 0.04749205
-0.023228621 -0.045002457 -0.068822324 0.0039863884 -0.031987242 0.06607008 -0.015519991 -0.009540949
-0.05578909 -0.063439496 -0.0095493095 -0.050720207 -0.0037789503 0.057785466 -0.030884363 0.053822234
-0.059781153 0.021336589 0.020468354 0.036853146 -0.0013303831 -0.073886305 -0.08022995 -0.009157418
0.04775329 0.050179534 0.0037266463 0.052554023 0.021853061 -0.052930914 0.06718537 0.03435454
-0.041324165 -0.10196516 0.044380926 -0.026648477 -0.007585632 -0.016223084 0.06374115 0.019079985
0.04291139 0.00036720186 -0.0060588215 0.002221909 0.07165398 -0.033309158 -0.051487952 0.0054006353
-0.032672204 0.048224 -0.11273791 -0.008046278 0.007853575 0.0022052315 -0.018231845 -0.063483186
00000000: 0623 5cbc c0d6 14bc 20e8 c0bc 9070 e43c
00000010: 36d8 f43c 9a81 4c3d 0ca0 8dbd 8287 0d3d
00000020: b6af e2bc 9365 30bd 9f52 183d ac66 0ebd
00000030: f217 363d 7462 593d 6809 043d d6f9 3b3c
00000040: 12c5 82bd 0aac 8c3c aa0f 073d aca4 753d
00000050: ed35 e4bb 6415 81bd 1df0 6cbd 86fe 513d
00000060: a04c 4a3b 5c72 93bd 2292 243d e6bc 6e3b
00000070: 7498 ddbc ccbd aeba fc1a d93c 7a96 083d
00000080: ec0f 94bb 5714 7fbd da53 8a3d b93f a9bd
00000090: 50ee e23c 4c97 773d 97b9 863c fc10 bcbc
000000a0: 1a88 a9bd 1206 be3c e192 b83c 0c85 3ebb
000000b0: 0aac 8bbd af3c f7bd 2db4 bcbb 9413 79bc
000000c0: 4665 b4bd 2467 0ebd 2d85 95bd 477d 2a3d
000000d0: 10d9 84bd 7b68 16bd b80b 41bd 9ad4 88bc
000000e0: a0d3 db3b aca8 c1bd 026c 52bd 8476 9bbd
000000f0: d84c 90bd 593d d6bc 641b d2bc b7db 81bc
00000100: 63d9 2fbb b4ba e73c e8fb 36bd 8915 503c
00000110: c2e6 223d e2f7 8fbd ed14 d9bd a0a5 8abd
00000120: 7c9d 5b3d 50c2 73bc 6e5c 29bd a4a9 783d
00000130: 42d1 623d 6ff4 45bd 1808 0ebd 5c30 413d
00000140: d009 2a3d 36a2 3bbc 8e88 4f3c 2820 923d
00000150: 498a 853b 5db7 fa3c 0f5d 0d3c fca4 9a3c
00000160: 3844 ae3c 8df0 49bc 80a3 02bd 8acc e3bc
00000170: 9a83 7fbd 809a 1ebb e952 46bd 9137 83bd
00000180: 14c4 723d 90ab 313c a601 0ebd 8f90 34bd
00000190: 97a6 65bc ece7 593d 1cc0 853d aefa 81bc
000001a0: 36f7 1e3d fad9 0ebc c184 8fbd 6d2d 8dbc
000001b0: 79a9 2b3d f7a9 acba 6bf7 683d 5a25 06bd
000001c0: b949 b93d 004d e73c 0488 c03b cc18 84bd
000001d0: e6b4 893d 2365 4cbd cc91 2f3d 99cd 3bbd
000001e0: 10dd e1bb a7ff 94bd e7b3 3dbd ff23 acbc
000001f0: 4087 7abb 0fc9 d5bd 709c 713d e085 003c
00000200: 5525 95bc 66b6 83bd ccdb 11bd edb9 9bbd
00000210: e4f9 56bc ca4e 893d 7ee4 a7ba f96f 95bd
00000220: 67b8 573b 51dd 91bd 37e5 ffbb 2031 e0bc
00000230: 061b 2bbd 7e28 243d 7ce1 2d3d 8ccd d4bc
00000240: 6459 5e3d 1f3e 53bd 2039 0dbd 9d42 32bd
00000250: 9d31 97bd 21ce 91bd 9522 69bd c0cb edba
00000260: c08d 613c 3f3b 443c 112a 1d3d 2eaf f1bc
00000270: 28cb 4dbd 4557 c1bd 2395 2f3d fc4d 74bd
00000280: 53a8 51bd 999c c5bd 7c7e 3bbd ca49 86bd
00000290: 5a7d 413c 71c5 413d 7cc8 d43c 010a 5fbd
000002a0: 751d 1bbd 396c c23c 3412 cf3c f2b2 0abd
000002b0: d3f3 f5bc cc37 6cbd c89a 463d 9420 833d
000002c0: 1a2d f3bb 40d4 4fbd de19 533d 9580 fcbc
000002d0: 50ec bd3c 52c3 eebc 96b7 3fbd f066 263d
000002e0: c688 893d 2eee 55bd a4ce a8bd 8021 8e3c
000002f0: e497 bfbc 1236 eebd 9cef 743d f4c1 2d3d
00000300: 3cdf fbbc 0326 b53c daa6 dbbc 4ef3 ba3c
00000310: a2e6 59bd c6e7 213d c652 aabd 0687 423d
00000320: f349 bebc 7f54 38bd b8f2 8cbd 40a0 823b
00000330: 0e05 03bd c04f 873d 8f47 7ebc a451 1cbc
00000340: 1a83 64bd 91ec 81bd b574 1cbc febf 4fbd
00000350: 44a8 77bb 74b0 6c3d 3401 fdbc b474 5c3d
00000360: 15dd 74bd 12ca ae3c 40ad a73c 53f3 163d
00000370: 4060 aeba b451 97bd 9a4f a4bd ff08 16bc
00000380: f498 433d 0e89 4d3d c03a 743b e342 573d
00000390: 3105 b33c 16ce 58bd 7c98 893d 59b7 0c3d
000003a0: 8743 29bd 1cd3 d0bd c6c8 353d e84d dabc
000003b0: e590 f8bb 46e6 84bc b88a 823d a14d 9c3c
000003c0: dbc3 2f3d 0085 c039 1489 c6bb 729d 113b
000003d0: 52bf 923d 2f6f 08bd 08e5 52bd d0f7 b03b
000003e0: 4ad3 05bd 8786 453d 22e3 e6bd 89d4 03bc
000003f0: 48ac 003c a585 103b f35a 95bc 7903 82bd

arith.constant6 f4 [7]
-0.036115143 -0.07004969 -0.029735925 0.0035115336 0.08805777 0.043815486 -0.18848202
00000000: 79ed 13bd 3676 8fbd c198 f3bc c221 663b
00000010: a257 b43d de77 333d 6e01 41be

arith.constant7 f4 [128]
-0.031172276 -0.032533344 -0.033789627 -0.013186382 -0.031826954 -0.0077399192 0.048855036 -0.031183299
-0.048732143 0.0028043375 -0.04332767 -0.030046014 -0.010664372 0.039743774 -0.015860695 -0.004696045
-0.021065101 -0.013132898 -0.07448862 -0.01957623 -0.010303621 -0.0094067 -0.025229502 0.0014717093
-0.015929496 0.034738008 -0.013993344 0.14365162 -0.017356386 0.019565513 -0.016447298 -0.018666942
-0.04110439 -0.016726354 -0.009227791 -0.02735231 -0.099216096 0.1571212 -0.067636855 -0.051661786
0.008435686 0.008276123 -0.035749182 0.020605871 -0.018344393 -0.0103768455 -0.01773684 0.16483355
-0.045473848 -0.03692944 -0.011477669 -0.012313341 -0.018212698 -0.11544483 -0.01191306 0.039512254
-0.036366425 0.059105147 -0.023810105 -0.029970326 0.12758963 0.00605545 -0.01797939 0.045633554
0.01434529 -0.0715386 0.106922634 0.24089839 -0.009673461 -0.009773418 0.062797435 0.05730662
0.04602017 0.096927054 -0.013578532 -0.06776376 -0.013449367 0.06850667 0.11644453 -0.006523185
-0.038097203 -0.021352366 -0.042064983 0.07578843 -0.012252579 0.16125865 -0.13352922 0.061959136
0.07917328 0.11422795 0.0900667 0.012629337 -0.034633216 -0.011495599 -0.026966304 0.022812488
-0.016401451 -0.010496678 -0.043094594 -0.008671953 -0.008841463 0.0067250566 0.029185962 -0.0139368605
-0.010381363 0.059650026 -0.035985682 -0.00084231625 -0.053989492 -0.02553384 0.13699777 0.022458386
-0.01475562 -0.010931607 0.086093955 0.042441085 -0.016148668 -0.025775466 0.04906755 -0.046956263
0.0983457 -0.01619038 0.028176442 -0.043791074 -0.015100077 -0.040009953 -0.011502762 -0.054962143
00000000: 005d ffbc af41 05bd fe66 0abd b20b 58bc
00000010: fb5c 02bd 269f fdbb 381c 483d 1e74 ffbc
00000020: 5b9b 47bd fac8 373b 5b78 31bd 0f23 f6bc
00000030: 9eb9 2ebc 5eca 223d 4aee 81bc 48e1 99bb
00000040: b890 acbc 5e2b 57bc 7d8d 98bd 545e a0bc
00000050: 85d0 28bc 8f1e 1abc 1aae cebc 5fe6 c03a
00000060: 937e 82bc 7149 0e3d 5744 65bc 6919 133e
00000070: fb2e 8ebc db47 a03c 7cbc 86bc 6aeb 98bc
00000080: 145d 28bd b505 89bc 2930 17bc f411 e0bc
00000090: cf31 cbbd 61e4 203e 3185 8abd 4f9b 53bd
000000a0: d535 0a3c 9398 073c bc6d 12bd a5cd a83c
000000b0: fb46 96bc a503 2abc d94c 91bc 20ca 283e
000000c0: c942 3abd 5343 17bd d50c 3cbc e5bd 49bc
000000d0: cc32 95bc 576e ecbd ff2e 43bc 9ad7 213d
000000e0: f6f4 14bd 3d18 723d 690d c3bc 5484 f5bc
000000f0: dba6 023e cc6c c63b 8449 93bc 40ea 3a3d
00000100: 8208 6b3c d482 92bd 41fa da3d 11ae 763e
00000110: 707d 1ebc b020 20bc f19b 803d 59ba 6a3d
00000120: a57f 3c3d b181 c63d 7e78 5ebc bac7 8abd
00000130: bc5a 5cbc 3a4d 8c3d 787a ee3d 71c0 d5bb
00000140: d00b 1cbd 28eb aebc 554c 2cbd f736 9b3d
00000150: 0bbf 48bc fd20 253e e2bb 08be ddc8 7d3d
00000160: 9a25 a23d 58f0 e93d e474 b83d 47eb 4e3c
00000170: 8fdb 0dbd 0958 3cbc 70e8 dcbc 41e1 ba3c
00000180: 565c 86bc 42fa 2bbc f583 30bd cf14 0ebc
00000190: c9db 10bc dd5d dc3b 6617 ef3c 6e57 64bc
000001a0: 9816 2abc 9653 743d b965 13bd e3ce 5cba
000001b0: 1624 5dbd 582c d1bc 2549 0c3e a6fa b73c
000001c0: 8ec1 71bc 7c1a 33bc 0752 b03d b4d6 2d3d
000001d0: 364a 84bc 1227 d3bc 0efb 483d 3655 40bd
000001e0: 7869 c93d b0a1 84bc 48d2 e63c 455e 33bd
000001f0: 5066 77bc 7ae1 23bd 1576 3cbc fc1f 61bd

sequential_4_1/conv2d_11_1/convolution f4 [18, 3, 3, 1]
-0.11075015 0.17900324 -0.09907923 -0.12145785 0.28604978 -0.11601615 -0.34234616 0.19383448
0.12411307 0.18321933 -0.21467882 0.20006876 -0.12063348 -0.052273616 -0.12662995 0.05441413
0.3824127 -0.18790968 -0.24001116 -0.02340296 0.27702355 0.2342074 -0.37244454 0.08606125
0.17179476 -0.18043922 0.048384048 0.013628469 0.05883195 0.13353457 0.019532183 0.06502952
0.02620623 0.06607499 0.01171824 0.003929008 0.27049777 -0.106552586 -0.31243443 -0.13020124
-0.17560016 -0.30125448 0.1162444 0.17765707 0.3460264 0.12991837 0.26635534 0.115399
-0.38813066 -0.23836592 -0.04528531 0.25846335 -0.118011996 -0.012845476 -0.2107106 0.26188004
-0.04680617 -0.36019626 0.061035577 0.32563737 0.02045088 -0.22406852 0.06627536 0.20104769
-0.079226665 0.20836644 -0.15861693 0.22301789 0.28418988 -0.13518511 -0.32659802 -0.25560114
0.07868852 0.26170623 0.36383137 -0.1591993 -0.06995309 0.113475025 0.0015716957 -0.33104402
-0.3583229 0.2590861 -0.0061590704 0.16886504 -0.08488519 -0.29508 -0.07242551 0.14567362
-0.004920978 0.20689985 -0.22577155 -0.22646494 -0.076357715 0.29845998 -0.12694922 -0.24359068
0.18344852 0.26043126 0.021207027 0.20230415 0.20736362 -0.3587545 0.101364374 0.07635213
-0.33536756 0.22897626 0.039166182 -0.2002064 -0.27877575 0.10302504 0.13072011 -0.023764633
0.31037608 -0.12701586 0.039192166 0.19271429 -0.35295182 0.27866244 0.06854985 0.119954884
0.21588676 -0.09902488 0.2487764 -0.4238952 -0.40199375 -0.010204693 -0.53237396 -0.14845347
-0.008067825 0.1551368 0.33735406 0.11860005 0.08911731 -0.074725404 0.1265033 -0.22182067
0.01328677 -0.26293898 -0.12438897 -0.14511196 -0.09464041 -0.011117159 0.2066415 -0.21186946
0.04368407 0.010435695 -0.031110467 -0.23790571 -0.2326821 -0.076353885 0.22054844 0.10683737
-0.08195043 0.26821175 0.23258899 -0.09410607 0.2717485 0.07583061 -0.2196258 -0.009158738
-0.27832484 -0.25325814
00000000: fad0 e2bd a04c 373e 0dea cabd e5be f8bd
00000010: 1e75 923e e099 edbd ff47 afbe 8c7c 463e
00000020: fe2e fe3d d99d 3b3e c4d4 5bbe d3de 4c3e
00000030: b00e f7bd dc1c 56bd 48ab 01be 5ae1 5e3d
00000040: 99cb c33e 656b 40be 7cc5 75be 90b7 bfbc
00000050: 08d6 8d3e 11d4 6f3e 0db1 bebe e140 b03d
00000060: f7ea 2f3e 0fc5 38be 5a2e 463d f149 5f3c
00000070: c5f9 703d 49bd 083e f501 a03c 322e 853d
00000080: 73ae d63c 5352 873d dcfd 3f3c e8be 803b
00000090: af7e 8a3e 3e38 dabd 68f7 9fbe 7953 05be
000000a0: 87d0 33be 073e 9abe 8b11 ee3d bceb 353e
000000b0: 5f2a b13e 5209 053e ba5f 883e 5056 ec3d
000000c0: 10b9 c6be 3216 74be 177d 39bd 4f55 843e
000000d0: 46b0 f1bd d575 52bc 85c4 57be 2415 863e
000000e0: d4b7 3fbd a56b b8be 7100 7a3d f1b9 a63e
000000f0: 9b88 a73c 3872 65be 60bb 873d 72df 4d3e
00000100: 9741 a2bd 035e 553e 7a6c 22be cd5e 643e
00000110: 5681 913e f76d 0abe db37 a7be 27de 82be
00000120: 7227 a13d 5cfe 853e 1b48 ba3e 2405 23be
00000130: 9143 8fbd 9865 e83d 5b01 ce3a 9a7e a9be
00000140: 1976 b7be efa6 843e 07d2 c9bb f5ea 2c3e
00000150: 49d8 adbd ba14 97be d353 94bd 772b 153e
00000160: 2840 a1bb 8edd 533e a830 67be 6de6 67be
00000170: 6f61 9cbd bfcf 983e fafe 01be d66f 79be
00000180: eed9 3b3e 3f57 853e 5cba ad3c d228 4f3e
00000190: 2157 543e abae b7be 2098 cf3d 815e 9c3d
000001a0: 4cb5 abbe c178 6a3e b86c 203d e802 4dbe
000001b0: b2bb 8ebe cbfe d23d 7edb 053e 0cae c2bc
000001c0: 9de9 9e3e 7210 02be f787 203d e556 453e
000001d0: 1ab6 b4be d8ac 8e3e dd63 8c3d e8aa f53d
000001e0: 6b11 5d3e 8ecd cabd 3ebf 7e3e cb08 d9be
000001f0: 20d2 cdbe 9631 27bc a949 08bf 3004 18be
00000200: e92e 04bc 2edc 1e3e acb9 ac3e 95e4 f23d
00000210: 2383 b63d a209 99bd 158a 013e f524 63be
00000220: c1b0 593c f09f 86be a5bf febd 3b98 14be
00000230: d5d2 c1bd bf24 36bc d499 533e 4ff4 58be
00000240: 11ee 323d 7afa 2a3c 61db febc 8e9d 73be
00000250: 3744 6ebe 6d5f 9cbd 73d7 613e 8dcd da3d
00000260: a1d5 a7bd 0d53 893e cf2b 6e3e afba c0bd
00000270: 9f22 8b3e 144d 9b3d 96e5 60be 880e 16bc
00000280: 9880 8ebe 0dab 81be

sequential_4_1/conv2d_11_1/Relu;sequential_4_1/conv2d_11_1/add;sequential_4_1/conv2d_11_1/convolution; f4 [18]
0.012424929 -0.04526054 0.0061598816 -0.060709633 -0.023178965 0.016712427 0.044404633 0.018772466
0.051527668 -0.15768868 0.091737814 0.02646487 0.0008063544 0.027575154 -0.018015098 0.042852223
0.14633834 -0.0030366702
00000000: ee91 4b3c 1e63 39bd d5d8 c93b aaaa 78bd
00000010: d0e1 bdbc 80e8 883c a2e1 353d b7c8 993c
00000020: ad0e 533d 2479 21be 09e1 bb3d dbcc d83c
00000030: 8761 533a 4ae5 e13c 6694 93bc d085 2f3d
00000040: b8d9 153e df02 47bb
